(dl4cv) linux@linux:~/Desktop/MS2-Embeddings$ python word2vec.py
Using TensorFlow backend.
Word2Vec embedding
Creating training file objects
Train data: 300000
Max Length: 296
Train label data: 300000
Max Label Length: 5467
Test data: 9705
Test data Length: 296
Test label data: 9705
Test Label Length: 5467
Input Vocabulary size: 5924
_________________________________________________________________
Layer (type)                 Output Shape              Param #
=================================================================
embed (Embedding)            (None, 296, 1000)         5924000
_________________________________________________________________
conv1d_1 (Conv1D)            (None, 289, 256)          2048256
_________________________________________________________________
max_pooling1d_1 (MaxPooling1 (None, 144, 256)          0
_________________________________________________________________
conv1d_2 (Conv1D)            (None, 137, 128)          262272
_________________________________________________________________
max_pooling1d_2 (MaxPooling1 (None, 68, 128)           0
_________________________________________________________________
flatten_1 (Flatten)          (None, 8704)              0
_________________________________________________________________
dense_1 (Dense)              (None, 5467)              47590235
=================================================================
Total params: 55,824,763
Trainable params: 55,824,763
Non-trainable params: 0
_________________________________________________________________
None
Epoch 1/10
2019-04-07 20:39:01.836745: I tensorflow/core/platform/cpu_feature_guard.cc:141] Your CPU supports instructions that this TensorFlow binary was not compiled to use: AVX2 FMA
…
